…
===========================>..] - ETA: 0s1420000/1458423 [============================>.] - ETA: 0s1445000/1458423 [============================>.] - ETA: 0s[INFO] loss and metrics: [0.003483617666313788, 0.0, 0.0048848964209778929, 0.049659075634418424]
_________________________________________________________________
Layer (type)                 Output Shape              Param #   
=================================================================
dense_9 (Dense)              (None, 64)                4416      
_________________________________________________________________
dense_10 (Dense)             (None, 32)                2080      
_________________________________________________________________
dense_11 (Dense)             (None, 16)                528       
_________________________________________________________________
dense_12 (Dense)             (None, 1)                 17        
=================================================================
Total params: 7,041
Trainable params: 7,041
Non-trainable params: 0
_________________________________________________________________
_________________________________________________________________
Layer (type)                 Output Shape              Param #   
=================================================================
dense_13 (Dense)             (None, 64)                4416      
_________________________________________________________________
dense_14 (Dense)             (None, 32)                2080      
_________________________________________________________________
dense_15 (Dense)             (None, 16)                528       
_________________________________________________________________
dense_16 (Dense)             (None, 1)                 17        
=================================================================
Total params: 7,041
Trainable params: 7,041
Non-trainable params: 0
_________________________________________________________________
_________________________________________________________________
Layer (type)                 Output Shape              Param #   
=================================================================
dense_17 (Dense)             (None, 64)                4416      
_________________________________________________________________
dense_18 (Dense)             (None, 32)                2080      
_________________________________________________________________
dense_19 (Dense)             (None, 16)                528       
_________________________________________________________________
dense_20 (Dense)             (None, 1)                 17        
=================================================================
Total params: 7,041
Trainable params: 7,041
Non-trainable params: 0
_________________________________________________________________
None
_________________________________________________________________
Layer (type)                 Output Shape              Param #   
=================================================================
dense_21 (Dense)             (None, 64)                4416      
_________________________________________________________________
dense_22 (Dense)             (None, 32)                2080      
_________________________________________________________________
dense_23 (Dense)             (None, 16)                528       
_________________________________________________________________
dense_24 (Dense)             (None, 1)                 17        
=================================================================
Total params: 7,041
Trainable params: 7,041
Non-trainable params: 0
_________________________________________________________________
None
lr changed to 0.000950000045123
lr changed to 0.000902500015218
lr changed to 0.000857375003397
lr changed to 0.000814506231109
[INFO] Time elapsed: 1510.52248001 sec
_________________________________________________________________
Layer (type)                 Output Shape              Param #   
=================================================================
dense_21 (Dense)             (None, 64)                4416      
_________________________________________________________________
dense_22 (Dense)             (None, 32)                2080      
_________________________________________________________________
dense_23 (Dense)             (None, 16)                528       
_________________________________________________________________
dense_24 (Dense)             (None, 1)                 17        
=================================================================
Total params: 7,041
Trainable params: 7,041
Non-trainable params: 0
_________________________________________________________________
[INFO] Model is saved as model.h5, model.json and model_weights.h5
